…
andom samples from our data and a learning rate of 0.00001.

==========
Start Time : Sun Nov  7 01:47:17 EDT 2021
Submit Dir : /users/rbennet8
Job ID/Name : 1541239 / Test CNN
Num Tasks :  _NTASKS total [1 nodes @ 8 CPUs/node]
==========

Loading tensorflow/2.4.1-cuda11.2
  Loading requirement: cuda/11.2 cudnn/8.1.0-cuda11.2 tensorrt/7.2.2.3-cuda11.2
Model: "sequential"
_________________________________________________________________
Layer (type)                 Output Shape              Param #   
=================================================================
conv2d (Conv2D)              (None, 997, 4, 32)        160       
_________________________________________________________________
max_pooling2d (MaxPooling2D) (None, 498, 4, 32)        0         
_________________________________________________________________
batch_normalization (BatchNo (None, 498, 4, 32)        128       
_________________________________________________________________
conv2d_1 (Conv2D)            (None, 495, 4, 64)        8256      
_________________________________________________________________
max_pooling2d_1 (MaxPooling2 (None, 247, 4, 64)        0         
_________________________________________________________________
batch_normalization_1 (Batch (None, 247, 4, 64)        256       
_________________________________________________________________
flatten (Flatten)            (None, 63232)             0         
_________________________________________________________________
dense (Dense)                (None, 64)                4046912   
_________________________________________________________________
dense_1 (Dense)              (None, 1)                 65        
=================================================================
Total params: 4,055,777
Trainable params: 4,055,585
Non-trainable params: 192
_________________________________________________________________
=== TRAINING: ===
Epoch 1/5
1/800 [..............................] - ETA: 2:12:25 - loss: 0.9910 - accuracy: 0.4600
800/800 [==============================] - 16s 8ms/step - loss: 0.7895 - accuracy: 0.5441
…
